MLwithTorch/cifar_net.pth (torch, 251391 bytes, 10 tensors)

conv1.weight f4 [6, 3, 5, 5]
00000000: fb2b b5bd 3996 edbd e565 a4bd a2db 8abd
00000010: 939c 433d 64d8 febb f696 b03d 910d 083e
00000020: 433e 93bb 106b 073e bdd3 33bc bebb 253e
00000030: 5e3b fd3d 0e53 d639 865b d53d 7359 c1bd
00000040: dd8d 04be 42a6 4ebe a0e7 f3bd d22e 4ebe
00000050: 935c 97be 886e 5dbe 8bc3 d3bd f8c7 3fbe
00000060: b993 83bd c624 c9bc 4085 11be 469a 18be
00000070: 991b c7bd f33a 803d 94fe 9b3d 791d 203e
00000080: 441f 423e e542 6b3d e30c 163e 81d1 9b3e
00000090: 819c 6a3e 0f16 ad3e 360a 363e 240b 993e
000000a0: e92b a93d ad2b 8fbd 8804 2dbd 84e3 b8bd
000000b0: 760c e0bd 1589 73be 51b7 55be 9b83 21be
000000c0: 7917 01be 72c7 b7bd 2f7a 093d 8199 81bd
000000d0: 5812 84bd 6d44 50be c171 0d3e 9012 d43d
000000e0: cf79 e73d 77b0 433e 15bb 4a3d d623 f53d
000000f0: 4bc5 763e 1d34 9d3e 2509 3c3e 94ab 823e
00000100: fc10 3f3e cb95 7e3d 2232 ae3c a3e6 7f3c
00000110: 2c31 afbd 5c35 343d c312 3cbe 3e14 03be
00000120: 52ff 31be ea24 2ebe 78ec 823d 01ec b53e
00000130: c449 743e 792d cb3e bc13 d13e 5753 b83e
00000140: 5157 c33e 0aac 8d3e d0e6 b03e 9384 c33e
00000150: ae5b e23d 791d f43d d9e5 8e3d 4c44 0bbd
00000160: d627 04be d065 99bd a1fb 02be 0556 6cbe
00000170: 6910 24bd bdc4 9bbd 2873 06be b77f 88be
00000180: 6b71 70be d3be 84be 68c4 56be 8cf0 1abe
00000190: da70 5abe 0134 1ebe 6fda 9ebd 68b3 c03c
000001a0: 6376 0abe 1ed2 d73a 04fc e3bd 05ae b83d
000001b0: e05d 6a3b 119c 22be 82fb febb 4450 96be
000001c0: 0512 27be 1948 acbe 46b0 91be b673 59be
000001d0: debf 06be da9d 88be 040b 18be 5995 a6bd
000001e0: 9e37 01be 07d5 11be 857a 4d3d 5b72 3d3d
000001f0: f5a7 c0bd b5f6 a6bd c56e 3abe 5f40 dbbd
00000200: 5ea1 833d 92c9 a43d 0a2b 9f3d 1c31 be3d
00000210: 4db8 353e 358e a6bd a6bc 5fbd 7603 743d
00000220: e422 29bc 1e9f ffbd 9d17 39be e93a c9bd
00000230: 9a30 873d 5618 2b3c c439 1a3c 3dbe 3c3e
00000240: 7272 5a3d 61e6 a83d 8710 203e c8d5 aa3e
00000250: 71ba b83e 7f5f 903e 25b9 e73d d8e4 0b3e
00000260: bfba a13d 795a 743d 7d53 8ebd 0d3d 3abd
00000270: c7f8 703d 2869 f13d 8fce 92bc 5025 c1bc
00000280: b542 223e 39d2 d23d 45fe b63d 7039 f43c
00000290: ea54 45bd 624f c03c 9f04 09bd 6e40 813d
000002a0: f04a a13d c94b b6bd 9e3a 463d 6542 543d
000002b0: fbc7 0b3e b8f8 fc3c f775 2d3d cc1b b4bd
000002c0: 3aea 133c 8992 72bd 851d 07be 1bb1 01be
000002d0: 2044 c53d 1a91 c63c 4f61 ecbd 2d77 50be
000002e0: 823e 3abe e7ea 5e3d a617 0dbd 016b 3c3c
000002f0: 06e0 40be e9ff 89be 4d07 413d 1a92 b23d
00000300: 078a 62bd c8b2 0ebc 4eab 54be 5cb6 cdbc
00000310: 03f5 c7bb d39f 18be 6901 f1bb e729 8ebe
00000320: 74c3 953e 27da 293e 9820 623e 2e46 38bc
00000330: ce1e 07be 0f9c 343e 1b87 8b3e 5b8c fe3d
00000340: 6996 bf3d 0112 2dbe 9564 683d c5d5 823e
00000350: 1ced 163e dce1 ce3c 0617 95bd d910 163e
00000360: a7f9 3f3e dacb b53d c438 2bbd c240 d9bd
00000370: af1f 133e 5226 0b3e c6e2 423e 67a3 95bc
00000380: 1fff aa3c 408e 2f3d 9c73 d73b 946b e8bc
00000390: f9cf 023e b491 e93d eb83 68be 2602 88be
000003a0: d8d2 e6bd bacb 1dbe 1eff 1bbe e812 b43b
000003b0: ab6a 45be 719e 24be 601b 9cbe 5f3f 4dbe
000003c0: aacd ebbc 42c4 953c 7332 293e 684b 51bd
000003d0: 5ac2 9f3c 9662 aa3d 416f 143e 104c 303e
000003e0: 941d d93d f053 3e3e 36a3 5ebe dbaf 00bd
000003f0: 4930 cd3c 2a78 8abd 3d85 b3bb 10a5 26be
-0.08846279 -0.11600918 -0.08027247 -0.06780173 0.047756743 -0.0077772606 0.086225435 0.13286425
-0.004493506 0.13224435 -0.010975775 0.16184899 0.12364839 0.0004087914 0.10417847 -0.09440889
-0.12944742 -0.2018061 -0.11909413 -0.20135048 -0.29562816 -0.21624196 -0.10340031 -0.18728626
-0.0642466 -0.024553668 -0.14210987 -0.149026 -0.09722061 0.06261244 0.07616916 0.15636243
0.1895724 0.057436842 0.14653353 0.30433276 0.22911264 0.33805892 0.17777333 0.29891312
0.08260328 -0.06990752 -0.04224065 -0.0902777 -0.10939877 -0.23782761 -0.20870711 -0.1577286
-0.1260661 -0.08973588 0.03356379 -0.06328107 -0.06448811 -0.20338602 0.13812925 0.10355103
0.1130253 0.19110285 0.04949482 0.11969726 0.24098699 0.30703822 0.18362863 0.2552153
0.18658823 0.062154572 0.02126414 0.015618953 -0.08554301 0.0439962 -0.18366532 -0.1280069
-0.17382553 -0.17006269 0.06392759 0.3553162 0.23856264 0.3968313 0.4083537 0.36001083
0.38152555 0.27670318 0.34551096 0.38187084 0.11052643 0.11919684 0.06977434 -0.03400068
-0.12905821 -0.07490122 -0.12791301 -0.23079689 -0.040054712 -0.07605884 -0.13129866 -0.2665994
-0.23480766 -0.25926837 -0.2097336 -0.15130824 -0.21332112 -0.15449525 -0.07756507 0.023523048
-0.13521723 0.0016465818 -0.111320525 0.090175666 0.003576152 -0.15879847 -0.007781447 -0.29358113
-0.16315468 -0.33648756 -0.28454798 -0.21235546 -0.13159129 -0.2668293 -0.14847952 -0.081339546
-0.12618873 -0.1424142 0.05016567 0.046251636 -0.09407035 -0.081525244 -0.18206318 -0.10705637
0.06427263 0.08046259 0.07771881 0.092867106 0.17746086 -0.081325926 -0.05462327 0.059573613
-0.01032326 -0.12481521 -0.18075414 -0.09825689 0.06601067 0.010442814 0.009413186 0.18431945
0.0533318 0.08247066 0.15631305 0.33366227 0.36079744 0.28197858 0.113146104 0.13661516
0.07896947 0.059656594 -0.06949518 -0.04546838 0.058831003 0.11787635 -0.01792076 -0.023577362
0.15845759 0.10294003 0.08935217 0.029812545 -0.048176683 0.023475353 -0.033451673 0.06311117
0.07875621 -0.089011736 0.048395745 0.05182113 0.13650505 0.030880317 0.04234883 -0.08794364
0.009028012 -0.059221778 -0.13194855 -0.12665217 0.096321344 0.024239112 -0.11541998 -0.20357962
-0.18187907 0.05442324 -0.03444638 0.011500121 -0.18835458 -0.26953056 0.047126103 0.08719273
-0.055307414 -0.008709617 -0.20768473 -0.02511137 -0.0061022057 -0.14904718 -0.0073549044 -0.27766344
0.2925068 0.16587125 0.22082746 -0.011247201 -0.13195345 0.17637657 0.27251515 0.124291144
0.0935486 -0.16901399 0.056736547 0.25553718 0.14738888 0.025254183 -0.07279782 0.14654864
0.18747579 0.08876772 -0.041802183 -0.10608055 0.14367555 0.13588837 0.1903182 -0.018266393
0.020873604 0.04286027 0.006575061 -0.02837161 0.12774648 0.11404744 -0.22706573 -0.2656414
-0.11270684 -0.15409747 -0.15234038 0.005495418 -0.19278972 -0.16076066 -0.30489635 -0.20043705
-0.028784592 0.01828206 0.16523151 -0.051097304 0.019501854 0.08319585 0.14495565 0.17216516
0.10601345 0.18586707 -0.21741948 -0.03141771 0.025047438 -0.06761201 -0.0054785297 -0.16273904

conv1.bias f4 [6]
00000000: 5b40 6cbe 8b9d 94be 2793 003e 0348 8cbe
00000010: fef9 0ebe 3126 d03e
-0.23071425 -0.29026446 0.12556134 -0.2739869 -0.13962552 0.40654138

conv2.weight f4 [16, 6, 5, 5]
00000000: bd64 053d a791 633a 6de7 e4bc 6808 97bd
00000010: 675e 4ebd ad27 f5bc 872a ab3c 781d 93bd
00000020: 768b 71bd e4fd a5bd aab5 88bd 076b c8bc
00000030: f3d2 4b3b 60ef 4d3b 294b 8bbd b7b1 4abd
00000040: a04b 6b3c 96d8 cfbc 58f3 d0bc 1c77 e8bc
00000050: 6d5b 8ebd bd4d d6bc 2610 84bd df6b ecbc
00000060: 0e42 e0bd ee12 36bd 4b06 013d ea97 d6bd
00000070: 87e1 86bc 261d 39bd 14d0 d0bc 4ba4 0bbd
00000080: e6a9 50bc e9e9 bcbc 9d2e adbd b5a9 f93c
00000090: cbf7 abbd bfef fa3b 773f 90bd e02e 433c
000000a0: 0fe0 1c3c d5f5 90bb b1ec 14bd 0032 74bd
000000b0: d603 073d d112 e7bc 5c07 853c 3c91 1fbd
000000c0: 1c5d a03c fa5e e03c 70b7 74bd b43a 2a3d
000000d0: 5e16 283d b7a9 acbc 42f3 2fbd 7caa 4dbd
000000e0: e1a8 183d 55f9 1cbb 374c 48bc 3103 3fbb
000000f0: 4fe3 813d 1628 02bd 0a35 eabc 4bb7 b2bd
00000100: cfa1 94bc dd7d a3bc 6e48 b9bd 6cca 793d
00000110: 41ee fe3c 78cb 3c3b 6718 9b3d 602d 9b3d
00000120: 23cd 913d 98a7 833d f66b 2d3e 56ca 06bd
00000130: 35d1 603d 46b8 b33c 3178 3ebd 1fc7 33be
00000140: 8b3d f7bc 9475 2e3d 0793 a8ba e9ab 853d
00000150: 82cc 063d 2aaa 153c 2892 263c 0520 9d3d
00000160: e892 ab3d 9e31 b73d 1fd3 b33d b1e2 c53d
00000170: 21e8 513e 96b1 723e 6086 3a3e 5e18 4a3e
00000180: 1a0c 283e 17bf 1a3e bd25 f43d d7eb 3b3d
00000190: c111 9abd 4a3c 0bbe 22a3 a1bd ae35 cabd
000001a0: 272a f1bc 08d9 4fbd 643a a9bd 0a4c 03be
000001b0: 981c bdbd 214b dcbc 0f9d 10bc 7f60 8fbd
000001c0: 11a3 9fbd eba9 3fbd eeff a7b9 6159 b8bc
000001d0: 8199 393b c39d 013d 543f 413d 67b5 c53d
000001e0: 5719 693d 208a c13c 1976 4f3d 9d68 133d
000001f0: de3d 0fbd 28b4 a13d e4f8 a23d fdb7 fb3d
00000200: dfb0 913d b595 6f3d f4ff 343c 7387 073d
00000210: db0d 153d 1a84 823d e72e b53d c3a1 b13d
00000220: 0c60 3ebc f4b0 233d dda4 623d dc7f 3a3b
00000230: b1b0 50bc 55fb c7bd b938 dcbd 128a 403d
00000240: e28a ec3d 8fa1 c5bb 1521 873d 38ec 6f3d
00000250: df1f 653d 8c87 9e3c f076 9c3a fc8c 0b3e
00000260: 108e 273e c83d da3d fb03 cc3d 162c debd
00000270: 64be 87bd 0cb3 c03c fb9d fbbc f6e2 0fbb
00000280: db17 9fbc 3a4b 663d 5c24 9e3d 7c4c 8d3d
00000290: bb91 86bc db26 943c 1181 ef3d 6dc4 ea3d
000002a0: a69e a3bc 230e 9b3d 5b91 a93c 2b74 8a3d
000002b0: 79e2 46bd dab2 64bd 4f5d 4f3d 468d bd3d
000002c0: c836 733d 3e81 c13d 6bd2 533d 09d4 453c
000002d0: 8519 523d 3524 033d 6bd0 ee3d b631 fdba
000002e0: 69bf 39bc c874 73bd 7a4e 9abd 5960 b0bc
000002f0: b1b4 7d3d e198 9cbc d91c 4bbd c92d 6fbc
00000300: a9b6 a83d aeed ef3c f9fd 5fbd a6c3 87bd
00000310: 3701 d3bc 742a 40bd 24c9 da3b 9cab 9e3c
00000320: 8c46 fd3c eb04 91bd 41f2 a1bc eff3 83bd
00000330: 0558 db3d 9e94 a43c 5d56 88bd 3b41 61bd
00000340: 1075 51bc 194f ed3c b9c4 5abd 5eaa 4e3d
00000350: 310e c63c 08dc 243c 81b0 ac3d dab7 35bd
00000360: 6b3e b33d 5189 7c3d ee94 ea3c fb91 e4bc
00000370: 4737 1bbd e8b8 503d 97c2 c03c 0bca 70bc
00000380: 92ed 323d cdf4 be3d b897 a63d b30b 3d3d
00000390: 6c4c 8fbd 08b0 aebd a349 ee3d 5741 3d3e
000003a0: b3f3 703c 84c9 97bd 53a4 0b3d 97b2 8e3d
000003b0: a571 9e3c 589e 083e 7c66 153d 8800 303c
000003c0: 59a2 b2bd 4979 b3bd 25f8 e5bc 92f4 b23d
000003d0: 5181 16bc 4948 183d 88e0 6d3d 3e94 cbbc
000003e0: 40e6 f8bc 567e 3bbd a3e3 973d 4a9f 603d
000003f0: 5c08 193d 33ee 1f3e 7168 0d3e 30a6 32bd
0.032566775 0.00086810667 -0.027942384 -0.0737465 -0.050382998 -0.029926145 0.020894302 -0.07183355
-0.05897089 -0.081050664 -0.06675275 -0.024465097 0.0031101077 0.0031423196 -0.06801445 -0.04948589
0.014361292 -0.02537183 -0.02550666 -0.028377108 -0.06951032 -0.026160115 -0.064483926 -0.02886003
-0.10950099 -0.044451647 0.031500142 -0.10478194 -0.016464962 -0.045193814 -0.025489844 -0.03409223
-0.012735819 -0.023060756 -0.084561564 0.03047643 -0.08396872 0.0076579745 -0.07043355 0.011913031
0.009574904 -0.0044238367 -0.03635854 -0.059617996 0.032962643 -0.028207215 0.01623886 -0.038956866
0.019575648 0.027389038 -0.059745252 0.04155989 0.041036956 -0.02107702 -0.042956598 -0.050211415
0.03727043 -0.0023952324 -0.012225202 -0.002914619 0.06342184 -0.03177651 -0.028589744 -0.087263666
-0.018143563 -0.019957477 -0.09047018 0.06098406 0.031119468 0.00288078 0.07573014 0.07577014
0.07119205 0.0642845 0.16935715 -0.032907806 0.054887015 0.021938454 -0.046501342 -0.17556427
-0.030180713 0.0425926 -0.00128612 0.0652693 0.032909878 0.009134809 0.010166682 0.07672123
0.083776295 0.089450106 0.087805025 0.096623786 0.20498706 0.23700556 0.18215322 0.19735858
0.16410866 0.15111957 0.119212605 0.04587921 -0.075229175 -0.13597217 -0.07892443 -0.0987352
-0.029439045 -0.050744087 -0.0826309 -0.12821975 -0.092339694 -0.026891293 -0.008826508 -0.07000827
-0.07794774 -0.046792906 -0.00032043405 -0.022503557 0.0028320255 0.031644594 0.047179535 0.096537404
0.05690893 0.023625433 0.050649736 0.03598844 -0.03497111 0.0789569 0.07957628 0.12290952
0.071138136 0.05849238 0.011047352 0.03308816 0.036390167 0.063728526 0.088468365 0.08673432
-0.011619579 0.039963678 0.055333007 0.0028457558 -0.012737439 -0.09764735 -0.107530065 0.047006674
0.11549927 -0.006031222 0.06598107 0.058574885 0.055938598 0.019351743 0.0011937302 0.13628
0.16362786 0.10656315 0.09961697 -0.108482525 -0.06628111 0.023522876 -0.03071498 -0.0021955348
-0.019420555 0.056224085 0.07721779 0.06899354 -0.016426912 0.018084934 0.11694539 0.114632465
-0.01997311 0.07571056 0.020699194 0.067604385 -0.048555825 -0.05583463 0.050626095 0.092554614
0.059378415 0.09448479 0.051714342 0.012074479 0.05129387 0.03201695 0.11660846 -0.0019317183
-0.01133714 -0.059437543 -0.075344995 -0.021530317 0.0619399 -0.019115867 -0.04958806 -0.014598318
0.08237965 0.02928814 -0.054685567 -0.06629114 -0.025757415 -0.046915486 0.00667681 0.01936894
0.030917428 -0.07081016 -0.019768836 -0.06443011 0.10710148 0.020090397 -0.066570975 -0.05499385
-0.0127842575 0.02896838 -0.053410266 0.050455444 0.024176689 0.010062225 0.08432103 -0.044364788
0.0875214 0.061654393 0.028635468 -0.02790164 -0.037894513 0.05095759 0.023530288 -0.014696608
0.043683596 0.09324036 0.08134407 0.046153735 -0.06996998 -0.08529669 0.11635139 0.18481956
0.01470654 -0.07411483 0.03409226 0.06967657 0.0193413 0.13341653 0.03647469 0.010742314
-0.087223716 -0.08763368 -0.028072426 0.08738054 -0.009186105 0.03717831 0.058075458 -0.02485096
-0.03038323 -0.04577478 0.07416465 0.05483941 0.037361488 0.1561821 0.13809372 -0.04361552

conv2.bias f4 [16]
00000000: ebc4 72be 1502 31be 8207 493d 9fe4 ab3c
00000010: af40 78be e29d 32bd 052b 193e 3280 93be
00000020: 93e3 a0be 1763 153f e6c9 edbd 5784 1bbe
00000030: c37f 42bd 2d12 02bf b00b 73bd 39d0 fbbd
-0.2370793 -0.1728595 0.049079426 0.020983038 -0.24243425 -0.0436076 0.14957817 -0.28808743
-0.31423625 0.58354324 -0.11610775 -0.15187202 -0.047485124 -0.50808984 -0.059337318 -0.12295575

fc1.weight f4 [120, 400]
00000000: 6b66 853c f3e2 86bb ec67 dc3c 9ba6 13bd
00000010: 9673 603d 0f89 653c 233d 2abd 3b2b 91bc
00000020: e7e7 cb3c 3b4f 133c de98 8dbc bd1d 13bd
00000030: 4da9 81bd eefb 273d 90f1 04bd 21b6 e3bc
00000040: d139 edbc 32d6 f1bc 6121 c13c d978 e23c
00000050: 757a d8bb 929f 17bb 6883 8a3d 6a39 b5ba
00000060: d8a9 3f3d 00ae f1bc 1e77 413c 4367 96bc
00000070: e19a 8dbc fccd 0b3d 793b 103c ad94 c43c
00000080: 36f2 babb 696a 50bc 2700 30bd 942a 973b
00000090: ed9d 713c 8902 0dbc ab9b c9bc ea49 74bc
000000a0: 5aa6 433d 0c21 903c 92a6 363c 5383 12bc
000000b0: 7197 313c 34d8 573d 69af a2bc 26c2 4bbd
000000c0: cb59 37bd 14a0 7b3c c4f6 573d fbf5 e5bc
000000d0: 0910 b83c 5e17 06bc b45e b13c 56cd d6bc
000000e0: c462 4a3c a61f 9a3c 7362 e63c 270b a23c
000000f0: 6acc 3bbd f307 bbbb 16ef dd3c 558c ac38
00000100: 2a17 08bd 80e4 25bd a3d0 d73b 9964 2dbd
00000110: c09a f8bc bb4e 163d 0684 0e3d 14a6 34bd
00000120: 2e22 323b 4dc9 35bd 2913 d83c 4722 80bc
00000130: fbf8 2a3d ba44 0cbc 3e45 f93c 80db 1cbd
00000140: 2a48 76bb 1561 9f3c 70a9 b9bc f9c9 d9bc
00000150: 2026 9e3a ea6a 053d edfb 2b3c 8b85 29bd
00000160: ea06 d73c bfaa 08bd e336 dbbb 9b3b 273b
00000170: a61f 673c 73de 61bc 73fc 223d 67af 103d
00000180: 3383 07bd 6cca 62bd 8386 35bc fa6c d6ba
00000190: c24d 4638 5db9 39bd 0ad5 5d3c 1421 aabc
000001a0: 553c 2f3d 44e3 05bd 57aa 693d 1697 0b3d
000001b0: 3f25 1abd 536d 17bd de49 303d 0d66 213d
000001c0: 2db8 b93c 744e 023c c3f0 fa3c eb76 2bba
000001d0: c259 253c 7f72 093d 1f7c 3cbd d4e0 2f3c
000001e0: d2e9 e8bc e614 353d b35a ce3c 2c26 8a3b
000001f0: 58d4 a0bc fd9f 16bb af07 2f3d b24e 9f3c
00000200: df93 d6bc de17 a63c 2b89 2fbd 6593 a7bb
00000210: 8b1a 913c e05e 42bc 88a3 7ebc b504 a6bc
00000220: 7d8d f2bb 9aad df3b c0af 373b 3d71 153d
00000230: 9769 0f3c b52e 1e3c 280c d5bc e753 403d
00000240: bcf8 51bd e17d 17bd 30d4 4e3d 334a f7ba
00000250: a059 54bc 38e3 0b3d 92f6 1a3d 7b03 acbc
00000260: a90d e4bc 7f08 3d3d 2b81 a63d 01dd bd3c
00000270: 549d 70bd c16c c23c 4620 81bc 6ccd 3c3d
00000280: bffe ff3c fecd 203d 72a3 233c 91a4 e3bb
00000290: 1406 983a e9cc 6ebc 2bd2 323d a339 0a3d
000002a0: b039 7e3d b9de d03c 5b4c 00bd 8dad ea3c
000002b0: 4403 493d 6bb7 933d b495 f6bb 936e 76bc
000002c0: 335e f53c 8c28 febc 3d7f 2d3b eb71 6cbc
000002d0: 091c 14bc 2da8 113d f533 76bc 0157 3cbd
000002e0: d5d8 83bc e2a8 e93c 2003 f5bb e74e b83a
000002f0: ee34 03bd 9a7d 283d 3290 163d 8db7 27bd
00000300: d3a9 d93c 1352 03bd 5f27 b1bc dab9 26bc
00000310: f611 f73c 9fad b43c 37fe dcbb 3fb4 1c3d
00000320: 0e77 623d f787 693d 9135 adbc 2f3e 953b
00000330: dab2 84bd 8d45 30bd ce58 92bc dd67 2e3d
00000340: 933b 10bc f110 7c3b 0437 ffbc 3077 3fbd
00000350: c2ac 78bd 0fcc 96bc 81de eabb 9e7a a93c
00000360: e961 d439 54b6 943c d984 2fbd bf33 e83c
00000370: 88de 7cbc c052 2a3d de68 fbbc d4d7 053d
00000380: d09e c2bc 3531 8fbc aeb7 27bc 99e1 8e3c
00000390: 5659 53bd d558 82bd 1147 483a 3b9b 833b
000003a0: 4fa3 193d 471b 293c 76c3 50bd 88fc 223d
000003b0: 0ec2 11bc 50ec 05bd 509c 8a3c 5df9 6ebd
000003c0: eaf9 073a b4d5 8c3c f935 fb3b b868 bbbc
000003d0: 427e 9abb f624 d7bb 581b 12bd d285 55bd
000003e0: 4210 95bd 6dee 9abd b6a5 82bb 9593 14bd
000003f0: 5b5c 553d af94 aebc 3ff5 d93c 0924 24bd
0.016284188 -0.00411641 0.026905023 -0.03604756 0.05479773 0.014009728 -0.04156221 -0.01772081
0.024890853 0.008991058 -0.017284807 -0.035917033 -0.0633112 0.041011743 -0.032456934 -0.027796807
-0.028958233 -0.029521082 0.023575487 0.027645515 -0.006606395 -0.0023135883 0.06763345 -0.0013826315
0.046792835 -0.029501915 0.011808185 -0.018359786 -0.017285766 0.03413199 0.008803242 0.023996675
-0.0057051433 -0.012720683 -0.042968895 0.00461323 0.014747125 -0.008606561 -0.024610361 -0.014910201
0.047766067 0.017593883 0.011148112 -0.008942443 0.010839329 0.05269642 -0.019859033 -0.0497457
-0.044763368 0.01535799 0.05272557 -0.028071394 0.022468584 -0.008184282 0.021651603 -0.026220959
0.012352649 0.01881392 0.028123116 0.019780708 -0.04584924 -0.0057077347 0.027091544 8.227738e-05
-0.033225216 -0.040501118 0.0065861507 -0.042332266 -0.030347228 0.036696177 0.034793876 -0.044103697
0.0027181017 -0.04438143 0.026376324 -0.015641345 0.041741353 -0.008561308 0.030428525 -0.03829527
-0.0037579634 0.019455472 -0.022663802 -0.026585566 0.0012065805 0.032572664 0.0104970755 -0.041387122
0.026248414 -0.03336596 -0.0066898926 0.0025517705 0.014106667 -0.013785946 0.039791536 0.035323527
-0.033084106 -0.055368826 -0.011079433 -0.0016359382 4.7279296e-05 -0.04534279 0.013539562 -0.020767726
0.042782146 -0.03268744 0.057047214 0.034079634 -0.037633177 -0.036969494 0.043039195 0.039403964
0.02267083 0.007953275 0.030632382 -0.00065408525 0.010092201 0.033556458 -0.04601681 0.010734756
-0.028431807 0.044209383 0.025189733 0.004215976 -0.019632503 -0.0022983544 0.042731937 0.019446705
-0.026193557 0.020275053 -0.042855423 -0.0051140063 0.017712852 -0.01186344 -0.015541919 -0.020265916
-0.0074021206 0.006826115 0.002802834 0.036484946 0.008753202 0.0096546905 -0.026006773 0.046955016
-0.051262602 -0.03698528 0.050495327 -0.0018866718 -0.012960821 0.03415224 0.037832804 -0.020997753
-0.027838545 0.04615068 0.081301056 0.023176672 -0.05874379 0.023733499 -0.01576246 0.046094343
0.031249402 0.03925895 0.009987699 -0.006947108 0.0011598491 -0.014575222 0.043657463 0.033746373
0.062066734 0.025496827 -0.03132282 0.028647209 0.04907538 0.072127186 -0.00752517 -0.015041011
0.029952144 -0.031025194 0.0026473545 -0.014431457 -0.009039887 0.035560776 -0.015027036 -0.04598141
-0.016094605 0.028522912 -0.007477179 0.0014061601 -0.0320329 0.041135408 0.03675861 -0.040946532
0.026570236 -0.032060694 -0.021625219 -0.010176146 0.030159932 0.022055445 -0.006744172 0.038257834
0.05528932 0.05701443 -0.021143707 0.004554532 -0.06479426 -0.04303508 -0.017864611 0.04257952
-0.008803266 0.0038462246 -0.031154163 -0.046744525 -0.06071163 -0.01840785 -0.007167638 0.020688351
0.0004050874 0.018153347 -0.042851303 0.028344987 -0.015433915 0.041582823 -0.030689653 0.032676533
-0.023757368 -0.017479518 -0.010236664 0.017441558 -0.05159887 -0.063645996 0.0007639984 0.0040163076
0.03750926 0.010321445 -0.050967656 0.039791614 -0.008896364 -0.03269607 0.016920239 -0.05834328
0.00051870814 0.017191745 0.007666346 -0.022877082 -0.004714758 -0.0065656854 -0.03567061 -0.052129574
-0.072784916 -0.07565007 -0.0039870394 -0.036273558 0.05209003 -0.021311132 0.0266062 -0.04007343

fc1.bias f4 [120]
00000000: d0e3 bdbb 53d0 de3d 9e1f 35bd 63e5 263b
00000010: efe9 e4bb 0c9d a2bc 9529 00bd 6284 603e
00000020: 86e5 1abd 4847 123e 3a20 c53c 883f 553c
00000030: b67d d43c 624c 77bd c6b5 853d 71d7 a4bd
00000040: 389e e5ba d764 2fbd 8a44 cfbb 8f88 2a3c
00000050: 7d03 f43d 6181 d8bd 6665 a73c 7da8 4cbd
00000060: 8ed9 5f3d 8eb2 883d 0237 69bd f61d 47bd
00000070: 8cf5 5ebc d92b fd3c cf27 a1bd 97ab 24bc
00000080: 8adb 21bc 0ecf 99bd 3367 31bc ecb1 55bd
00000090: 3c23 513c d4b8 06bd 3b72 8a3d 3012 2e3d
000000a0: 26d6 633b c5c9 56bd 3343 083e 9e45 f0bd
000000b0: dea0 163e 1c09 dd3c c9b8 20bd 3b86 48bc
000000c0: 114c fd3d 46d8 923d 9810 b7bc 0829 babd
000000d0: 7224 2ebd d884 5abc d63c 40bd 3aed 96bd
000000e0: 86c4 423e 47ee 463e 356e f5bd 2e47 f63c
000000f0: 08f4 6ebd 8cdb 143c 1bdd 023e 41cb 03be
00000100: 6fca b13b ebd7 1abc b3aa 31b9 c366 75bd
00000110: 5a83 e3bd 0f8f b43d faf2 07bd a40e 9cbb
00000120: 4351 54bc fdaa 903c 5a14 89bc 1ec0 233d
00000130: 5cfd e93c c97a ff3c f4db cbbc 9051 45bd
00000140: 4282 923d 3d90 23bd 9141 313d c6ec 2d3d
00000150: dc9c d53d 18f7 ef3b 4d41 b13c 2d6a 64bd
00000160: 5543 6bbd 2d63 8dbd 2ff5 edbb 762a 493d
00000170: 51b9 fc3c 7dd3 883d 5389 073d 5511 263b
00000180: 8de2 02bc f868 113c e67f 27bd 3ea5 553d
00000190: 3689 e43c 650b 99bc 1716 29bd 96ef cdbc
000001a0: 4c83 093d 9075 e1bc eb65 1a3d 12fa 903b
000001b0: d17f cebd 2142 31bd 0e88 493d 6674 323d
000001c0: db66 bb3c 7ddc ccbc 8eaa 3abc 88b6 d5bc
000001d0: bc21 193d 8c52 0abc 92e4 133c ae46 a6bc
-0.0057949796 0.108795784 -0.044219606 0.0025466315 -0.006985895 -0.019850276 -0.031289656 0.219255
-0.037816547 0.14285004 0.024063218 0.013015635 0.02593885 -0.06037558 0.06528811 -0.08048905
-0.0017518466 -0.042820778 -0.006325309 0.010408535 0.11914728 -0.10571552 0.020434093 -0.04996537
0.054650836 0.066746816 -0.056937225 -0.048612557 -0.013608348 0.030904697 -0.07868921 -0.010050676
-0.009879002 -0.07510196 -0.010827827 -0.052171633 0.012764748 -0.03289111 0.06760069 0.042497814
0.0034765094 -0.052438516 0.13306884 -0.117320284 0.14709803 0.026981883 -0.039238725 -0.012239034
0.12368024 0.07170157 -0.02234678 -0.09089857 -0.042515226 -0.0133373365 -0.046933018 -0.07369466
0.1902028 0.19426833 -0.11983911 0.030063238 -0.058338195 0.009085547 0.12779658 -0.12870504
0.0054257433 -0.009450893 -0.00016943626 -0.059912454 -0.11109038 0.08816349 -0.033190705 -0.0047624875
-0.012958827 0.017659659 -0.016733337 0.03997814 0.028563194 0.031186478 -0.024885155 -0.048173487
0.07153751 -0.03993248 0.04327542 0.042462133 0.10430309 0.007323157 0.021637583 -0.05576532
-0.05743726 -0.06903682 -0.007261894 0.04911276 0.030850084 0.06680963 0.033089947 0.002533992
-0.007988584 0.008875124 -0.040893458 0.05215954 0.027897459 -0.018682191 -0.041280832 -0.025138658
0.03357248 -0.027521878 0.037694853 0.004424342 -0.10082973 -0.043275956 0.049202017 0.043568037
0.022876194 -0.02500748 -0.0113932025 -0.026088014 0.037385687 -0.008442532 0.009026663 -0.020297375

fc2.weight f4 [84, 120]
00000000: 32b1 91bd 5eb2 a8bd 9320 cb3c ceab bebd
00000010: 6757 99bd c174 c9bc cc17 ab3c 456c 85bb
00000020: 3db7 64bd 8bf9 36bd ab3b b53b af94 223d
00000030: 00e1 c5bd b8de e33b 9276 a3bc 3cb3 1c3c
00000040: 8101 1ebd 591c 2cbc a8e6 c4bd 6748 48bd
00000050: dc2c 943b 348a c93d de20 ba3d c24e 35bd
00000060: c5ba 703d 5c07 3a3d 48b3 87bd 32c0 8bbd
00000070: b49d 0fbd 00be ccbd 841e b53d 3342 043d
00000080: be97 8ebd f8b8 dfbb 0e1f 843c 4e91 423d
00000090: 0e4f 4dbc c656 85bd 121e c93a 39ac d8bc
000000a0: 5f66 833d 31cb 963c 2a5b fd3c c7f4 5bbd
000000b0: 8bba d8bc 2ee6 3c3d 590f fc3c afc5 af3d
000000c0: 7b9c 9f3d 0e72 41bd 79b9 b4bd fff1 c23c
000000d0: 30b1 b8bd 927f d03d 5bb2 aa3d 3c68 12bd
000000e0: e75a 92bd ab23 babd 7917 e53c 952a cfbc
000000f0: 537b 82bd b90c 28bc 389e 883d 4441 97bc
00000100: f672 0cbd ca99 5abc 3991 abbd aa0c 4dbc
00000110: 5d1d b13d 2c6f a93d 6fe2 c0bc f323 6bbd
00000120: b575 823d 684e 4ebc b108 dd3d f238 8bbd
00000130: 36cb b13c 7eb9 9c3d 08a4 16bd d170 d83c
00000140: 60f0 953d ddcd 88bd 3061 12bc bccd 213d
00000150: 3f48 93bd a4e2 02bd f1bb b0bd ae85 893c
00000160: 1be2 b43c 3a1f 493d bcdb 23bd 32b7 173b
00000170: 6654 933b 8bb9 583d 51a4 2e3d 60cc 69bd
00000180: 0c98 843d e3cd 7d3c 1ea7 bb3c 4868 f53c
00000190: f7f0 74bd e83e d33a cc6e e23c cec8 b13d
000001a0: c7ef b73d f55c 1d3c c7cf 88bc 1b76 01bc
000001b0: 51f7 473d 0e05 013d 5498 aa3c c0fc 873c
000001c0: e6fa 863c 5ac0 31bd 0e69 643d 6b31 0c3d
000001d0: d91b 64bd fc2d 23bc 5123 45bd 635f c0bc
000001e0: 6b25 1bbd 4dd0 1bbd f75c 303d eb4e 11bb
000001f0: 0e60 d7bc 4f81 4c3d 490a 66bd 807f 6a3b
00000200: ef7a b4bd 9483 83bd 43a0 a1bd 13b8 6c3c
00000210: 763e 43bd f243 973d c0af 833d 9e02 6e3d
00000220: e291 bd3d 8fb4 7cbd 7694 193d 0d0f 3e3d
00000230: 2952 3b3c dad0 babd 863f 763d 6e09 a8bd
00000240: b009 b9bd 79b1 8f3c f039 14bc adaa 0e3d
00000250: d751 1f3d c360 34bd 2664 133d a5be 80ba
00000260: b38c a03d f768 223d b62a 30bd f8c2 1b3b
00000270: 7bdf 85bd 840a 7d3d 545c 183c c544 80bd
00000280: 77fc 2c3c 1363 cb3c 81a2 34bd 7ba2 68bb
00000290: 427a 63bd bcbb cfbb 8fb0 a23d 83bb a83d
000002a0: 6a2d 1cbc cca0 9c3c 33d6 743d ffc1 a03d
000002b0: 5edd df3d f31d fd3d b58f 243d 55dd 96bd
000002c0: 130d 743d da5e 483d 9e74 e63c a8e3 6c3c
000002d0: f65c a9bd bbf5 383d 62f6 debd 0b7d 083d
000002e0: 1a91 f33c 68c9 423d fe4c 4cbb a5e0 cf3d
000002f0: a9fb 0abd ef31 dbbd 4951 3e3b ef00 68bd
00000300: 70ff 453d aedb f2bc 526b ca3d ed78 ef3c
00000310: 96ca 5cbd de09 b53d 02fd e4bd b46b 923c
00000320: 73f6 14bd dbbd 72bd 7369 5fbd 936d bd3d
00000330: dad7 32bd 22a8 abbd c704 12bc dc39 b6bc
00000340: b83c 6bbc 8ece a3bd e177 6b3d 1767 2d3d
00000350: ff46 00bd 61fe 9dbd e508 50bd 80a5 263d
00000360: 30bb b3bc 3a2c 973d dbd1 0b3c 16f6 563b
00000370: 9c78 adbd 3ebd 99bd 801e 8cbd 24e9 36bc
00000380: aa77 f7bc 4f82 833d 7ad4 bdbc 2331 683b
00000390: f30f 103e ac53 2f3d d7d5 ebbd 8af9 81bc
000003a0: d667 f4bc 2f81 c7bc eb12 f93c 8c56 ac3d
000003b0: c194 3f3d 5d3e b93d 510f 2b3c 184e 7bbb
000003c0: 8ebb a7bc 1729 f73d f25b af3d d171 493d
000003d0: 6f4c 123c 0456 593d 3275 803d b7a7 0e3d
000003e0: 3c08 92bd 0b97 ccbc 179f 6ebc 92e1 723d
000003f0: 25d0 e73c b13d 363d 7c83 19bd 5ca2 4e3d
-0.071138754 -0.08237146 0.024795806 -0.09310113 -0.07487374 -0.024591805 0.02088537 -0.0040717446
-0.055838812 -0.044671576 0.0055307946 0.039692577 -0.09662056 0.0069540404 -0.019954 0.009564217
-0.038575653 -0.0105048055 -0.09614307 -0.048897173 0.004521949 0.09840813 0.090883 -0.044264562
0.058771867 0.045417175 -0.06625992 -0.06823768 -0.035062507 -0.09997177 0.08843711 0.032289695
-0.06962536 -0.00682747 0.01612809 0.047501855 -0.012531055 -0.06510691 0.0015344045 -0.02644931
0.0641601 0.018407436 0.03092726 -0.053700235 -0.026456138 0.046117954 0.030769037 0.08582627
0.07793518 -0.04722791 -0.088244386 0.023797033 -0.09018171 0.10180582 0.083348 -0.035743937
-0.071462445 -0.090888344 0.027965294 -0.02528886 -0.063711785 -0.01025694 0.06670803 -0.018463738
-0.034289323 -0.01334233 -0.083773084 -0.012515226 0.08648179 0.082731575 -0.023545472 -0.05740733
0.06370107 -0.012591936 0.107926734 -0.06797971 0.021703344 0.07652567 -0.036777526 0.026420983
0.073212385 -0.0667989 -0.008934304 0.039502844 -0.07191514 -0.031954423 -0.08629597 0.016787376
0.022080472 0.049102046 -0.040004477 0.0023149964 0.004496145 0.052911323 0.042637173 -0.057079673
0.06474313 0.015490982 0.022906836 0.029956952 -0.059800114 0.001611677 0.027640723 0.086808786
0.08981281 0.009604682 -0.016700638 -0.007901694 0.048819844 0.03149896 0.020824589 0.016600013
0.01647706 -0.04339633 0.05576425 0.034226816 -0.05569062 -0.009959694 -0.048129383 -0.023482984
-0.03787748 -0.038040448 0.04305741 -0.0022172283 -0.02629092 0.049928006 -0.056162152 0.0035781562
-0.0881251 -0.06421581 -0.078918956 0.014448184 -0.04766699 0.073860064 0.06430006 0.058107965
0.092563406 -0.06169563 0.0374951 0.046401072 0.011433163 -0.091218665 0.060119174 -0.082049236
-0.09035051 0.01754068 -0.0090470165 0.034830738 0.038896408 -0.04403759 0.03598418 -0.0009822441
0.07839336 0.039650884 -0.043009482 0.0023767333 -0.06536766 0.061777607 0.0092993565 -0.06263117
0.010558239 0.024827516 -0.04410029 -0.0035497237 -0.055536516 -0.0063395184 0.07943832 0.0823889
-0.009532312 0.019119643 0.05977459 0.07849502 0.10930894 0.12359228 0.040176112 -0.073664345
0.05958278 0.048918582 0.02813178 0.014458574 -0.08269684 0.04515622 -0.108868375 0.033322375
0.029732276 0.047555357 -0.003117382 0.101502694 -0.033931408 -0.107028835 0.002904015 -0.056641515
0.048339307 -0.029645767 0.09883751 0.029232467 -0.05390414 0.08839773 -0.1118107 0.017873622
-0.036367845 -0.05926309 -0.054543924 0.09249415 -0.043662883 -0.08381678 -0.008912272 -0.022244386
-0.014357738 -0.079983816 0.057487372 0.042334642 -0.031317707 -0.077145346 -0.050789732 0.040685177
-0.021939844 0.073814824 0.00853392 0.0032800487 -0.0847027 -0.07506798 -0.06841755 -0.0111639835
-0.030208427 0.06421339 -0.023172606 0.0035429678 0.14068584 0.042804405 -0.11515396 -0.01586606
-0.02983467 -0.024353592 0.030404529 0.08414945 0.046772722 0.09045098 0.010440663 -0.0038346108
-0.020475175 0.12068384 0.08562459 0.04918081 0.008929356 0.053060547 0.06272353 0.034827914
-0.07130477 -0.024974367 -0.014564297 0.059297152 0.028297493 0.044492427 -0.03747891 0.050447807

fc2.bias f4 [84]
00000000: 6cb8 d3bc 95a8 35be 6738 2cbe acd2 e7bd
00000010: f1aa 9bbc 5b78 343c 0654 17bd 42f2 18bd
00000020: 3496 3c3e 53e8 9e3e d4ac 193e d78a 48be
00000030: 6c4d 983d 3cf2 823e 9175 4dbd 49f0 303c
00000040: 5552 9a3e c5b1 41bd 3459 6f3e e60a d1bd
00000050: acb2 053d efe5 b9bc 7665 46be 72e0 d63d
00000060: 0d2b 973d d390 163e da32 a8bc 2f79 2d3e
00000070: 09c2 d63d d053 81bd f3a8 ad3c 5622 ffbb
00000080: 8bc0 203c 4b72 e6bd 4992 f8bc 9528 58bd
00000090: 070b c7bc 2384 90bd 5c02 a9bc 3cd6 afbd
000000a0: 53d3 2cbd b9ec b8bc 5432 d93c b42e 99bd
000000b0: c8d4 873e 7d2e 173e ea6d fa3d dcce b4bd
000000c0: 751c cb3b 7f05 2b3e 3180 6b3d 4770 b8bd
000000d0: 8cdd 1abd 84e5 22bd caca d6bd 171a 043e
000000e0: 5f0a 1bbd bebd ffbd ef90 d9bd bfa0 b1bd
000000f0: b135 78bd 3059 993d cddc 013c d296 60bd
00000100: 9834 acbd feef ddbd 8c1c 913e aa46 cebc
00000110: 0878 c93c 7747 d33d 961a ba3d ef0a 53bc
00000120: 15a4 12bc 89a2 11bc 6c0c e43c ee2f 973e
00000130: f4f4 a23d 5748 953c ec85 02be 5ac9 7e3d
00000140: b16a 543e ef61 02bd fd0f 933e 69ed 903c
-0.025844775 -0.1774009 -0.16818391 -0.11319479 -0.01900241 0.011015023 -0.036945365 -0.03734041
0.18416673 0.31036624 0.15007335 -0.19584213 0.07436642 0.25575435 -0.05016095 0.010799476
0.3014094 -0.047288675 0.23373872 -0.10207157 0.032641098 -0.022692649 -0.19374642 0.10492028
0.07381258 0.14703684 -0.02053206 0.16940759 0.10486228 -0.06314814 0.021198725 -0.0077860756
0.009811531 -0.112522684 -0.030343192 -0.052773077 -0.02429725 -0.07056453 -0.020631008 -0.08585784
-0.042193722 -0.022573816 0.026513256 -0.07479611 0.26529527 0.14763828 0.12227996 -0.08828518
0.0061984607 0.16701315 0.0574953 -0.0900579 -0.03780894 -0.039769664 -0.10487898 0.12900577
-0.037851688 -0.12487362 -0.10623347 -0.08673238 -0.06059808 0.07487714 0.007926178 -0.054831333
-0.08408469 -0.108367905 0.28342092 -0.02518018 0.024593368 0.10316365 0.09087102 -0.012881025
-0.008950253 -0.008888849 0.027837954 0.29528755 0.07956877 0.01822297 -0.127464 0.062203743
0.20743825 -0.031831678 0.28723136 0.017691331

fc3.weight f4 [10, 84]
00000000: 9585 7c3c 20a3 8abc 59c6 07bd 56bd 19bd
00000010: 247c b23d 176e c23c 939a e9bd 9c02 47bd
00000020: 97bd 92bd b20e 6fbe cd48 4e3d 325c eb3c
00000030: 71c3 cb3d f0e5 86bd a5b6 a23d 4696 c8bd
00000040: 247d 1ebe de53 c03c e820 edbd 6c79 853d
00000050: 1ad9 1d3e b633 d1bd 684c 0e3e 355b 073e
00000060: 8470 9c3e beee e6bc 1e45 e63d 623f 08be
00000070: 5d07 b7bc e884 333e b604 ae3b bce2 383d
00000080: 9e2d 99bd f63d fbbb e72b 80bc f748 ec3c
00000090: 5b90 7f3c 49d9 463c 8671 713d 0243 9bbc
000000a0: 44ca 4d3e 0ca5 b13d d559 363b 1e5a b2bd
000000b0: 389b 1c3c 8617 3e3e 471f 1cbe fbfc 1cbe
000000c0: fbd8 f03d 0ff8 bfbd a68a 253e be18 65bd
000000d0: 9295 e7bd d885 893c a87a b23c 4693 b83d
000000e0: 7217 9ebc da44 15be 6e73 8cbd 7a9b 4b3d
000000f0: eb02 573e 5c19 513e 1118 e93d bf32 92bc
00000100: af1d 053e 1c24 b33d f722 113e b83d 413d
00000110: 66a5 33bd 3bdf 733e 4260 2c3d 177a 0abe
00000120: 9a1f 7fbd a8b6 993d b9bd 3f3d aabb f0bd
00000130: 8603 593d 30c0 093d 377d 3d3d 46d7 ce3c
00000140: e15f 54be 1cb7 07be 11be 263c 8d53 5a3d
00000150: a91c 373d 46f4 543e 7528 31bc fcf3 0f3d
00000160: 68b2 c7bd bc6f 8fbd 2d3f 1dbc e012 9c3d
00000170: 2aaf 5e3d 69a3 adbe c73c 9fbd dc9a a93a
00000180: f9e0 0f3e 547c 2cbd 419c 983d 1442 edbd
00000190: 53dd 54bd cc24 a13d d460 8dbd e261 8cbd
000001a0: c12c 46be 46cb db3d 2739 993e f7a0 44be
000001b0: ea84 1c3d 6f04 a6bd f272 ea3c 0159 46bc
000001c0: 4e1a 813a d11a 9a3e b0bb d0bd 29a2 223d
000001d0: 3611 afbc 304e ac3d 5d7a a1bd 5faf 66bc
000001e0: c680 f6bd 9f59 3f3e d0be 083e faf9 793c
000001f0: 51d8 03be ec3a 56bd b220 b0bd 33e3 ed3c
00000200: 5dc4 4bbd e867 683b a6be b7bd 5297 043e
00000210: 5dfb 69bd a712 52be 1464 acbd 2925 7ebd
00000220: 5df6 753e e93e 163d 2cf5 813e 6d12 71bc
00000230: 5055 6abd e170 0fbe c140 b33c 6389 0fbe
00000240: 7786 e13d eabe f1bd 9ccc 0cbe 61b8 6ebd
00000250: 8e81 833e aacb f3bd 6f4b 97be dfb3 423d
00000260: c5d4 3ebe fb52 ccbd 4c5f f23d 75a0 9d3b
00000270: 63d7 0abe ba21 923d bddc abbd 2184 e8bd
00000280: 0a9d 01be b44f 303c fa04 a83e b13a 9cbd
00000290: 3bdb a0bd adda ee39 8010 afbb db2b 1d3e
000002a0: b95c 5ebd 4b3a 983d c909 853d 6cc1 cdbc
000002b0: a524 fdbb 9af0 48bd 9d1b f13d 53f3 f33c
000002c0: 0de5 4d3e 54a0 4d3e 7dd2 3a3c 4182 20bd
000002d0: 54da 83bd 7fc7 b43d 0c27 393d 36db f2bd
000002e0: 5ed4 3e3e b2e8 35bd 67e3 ad3e af11 85bd
000002f0: 833c 423d dd83 e9bc 406d 32bc f33c 9b3d
00000300: 50f2 cf3b e2bf 6cbd 9495 a1bd 29f4 98bd
00000310: c09f 60bd 7309 d63b b718 13bd 5556 c43c
00000320: 0d4b cdbd ff92 08bd 3ef9 93bd d88e c7bd
00000330: b421 e13d ed4c b93c be77 43be 1dc5 efbd
00000340: f422 143e 6fd0 303d 0c21 22bd 7d31 85bd
00000350: 2230 05bb 03ef 8bbd e585 c6bb 39e7 ebbc
00000360: 85b7 4abc 0b2d 143e cb75 5e3e a0a3 b7bd
00000370: 1f0f 15bd dee3 27bc 9fe6 18be 709d 083e
00000380: ba05 3a3d b9d5 22be b9f8 7c3d 8f62 9fbc
00000390: d847 f43c fa6e 183e 10fe 043e 7044 103d
000003a0: 27f9 c0bd 57d6 18be 8b12 7f3e ad31 fe3c
000003b0: 0b11 56bd daa9 8b3d 308e f23d 7a81 c73d
000003c0: f9e4 f5bd 9af1 b4bd fa94 6ebb 63de 633e
000003d0: 3005 01bd ea25 db3d 2195 1ebe 87a7 5ebb
000003e0: b68f 5f3e 451d b4bd 2b3c 603d 1275 03be
000003f0: 60af b13b 8dda 4a3d f59a 373d f935 a3bc
0.015412708 -0.016923487 -0.033148143 -0.03753408 0.08715084 0.023734136 -0.11406436 -0.048586473
-0.07165068 -0.2334545 0.050362397 0.028730486 0.09949387 -0.06586826 0.07944993 -0.097942874
-0.15477425 0.023477491 -0.11578542 0.065173 0.15414849 -0.10214941 0.13896334 0.13218386
0.30554593 -0.028190013 0.11243652 -0.13305429 -0.022342378 0.17531168 0.00531062 0.045138106
-0.07479404 -0.0076672984 -0.015645934 0.028843386 0.015598382 0.012136766 0.058946155 -0.01895285
0.2009669 0.08674058 0.002782454 -0.08708595 0.009558491 0.18563661 -0.15246306 -0.1533088
0.11760136 -0.09373485 0.16166171 -0.0559318 -0.11307825 0.016787454 0.021787003 0.09012465
-0.019298289 -0.14577046 -0.06857954 0.04970882 0.20997207 0.2041983 0.113815434 -0.017846463
0.12999605 0.08747122 0.14173494 0.047178 -0.043858908 0.23815624 0.042083986 -0.13523136
-0.062285997 0.07505542 0.046811793 -0.11754544 0.052981876 0.03363055 0.046261992 0.025249135
-0.207397 -0.13253444 0.010177151 0.053302336 0.044705067 0.20796308 -0.010812868 0.03514479
-0.09750825 -0.070037335 -0.009597582 0.076207876 0.05436627 -0.33913735 -0.07775264 0.0012939828
0.14050664 -0.042110756 0.07451678 -0.11584869 -0.051968884 0.078683466 -0.06903234 -0.06854607
-0.1935301 0.10732131 0.29926416 -0.19202028 0.038212694 -0.081063144 0.028619263 -0.012106181
0.0009849758 0.30098584 -0.101920485 0.03970543 -0.021370512 0.084133506 -0.07884667 -0.014079898
-0.1203628 0.18686531 0.13354039 0.015257353 -0.12875487 -0.052302286 -0.08599986 0.029039001
-0.049747813 0.0035462324 -0.0897191 0.12948349 -0.057124484 -0.20514928 -0.08417526 -0.062047157
0.24019761 0.03668109 0.25382364 -0.014713866 -0.057210267 -0.14007904 0.021881463 -0.14017253
0.11011975 -0.11803992 -0.13749927 -0.058281306 0.2568478 -0.1190408 -0.2954974 0.04753482
-0.18635853 -0.09976765 0.11834583 0.0048103877 -0.13558726 0.07135339 -0.08391712 -0.113533266
-0.12657562 0.01076119 0.32816297 -0.07628382 -0.07854315 0.00045557824 -0.005342543 0.15348761
-0.054287646 0.074329935 0.06496007 -0.025116645 -0.0077253156 -0.04905758 0.11772845 0.029779112
0.20106907 0.20080692 0.011402723 -0.03918672 -0.06438127 0.08827113 0.045203254 -0.118582174
0.18635699 -0.04441137 0.33962557 -0.064975135 0.04742099 -0.02850526 -0.010890305 0.075799845
0.0063460246 -0.05780018 -0.07889858 -0.07468445 -0.05483985 0.006531888 -0.03591224 0.023966948
-0.100240804 -0.03334331 -0.072252735 -0.09744042 0.109927565 0.022619689 -0.19088647 -0.11707518
0.14466459 0.043167528 -0.039582297 -0.0650358 -0.002032288 -0.06832697 -0.006058442 -0.028796779
-0.012372856 0.14470308 0.21724622 -0.08966756 -0.036391374 -0.010247199 -0.14931725 0.13341308
0.045415618 -0.15901841 0.061760638 -0.019456176 0.029819414 0.14886084 0.12987542 0.035221517
-0.09422522 -0.14925514 0.24909417 0.031029547 -0.052262347 0.06819506 0.11843526 0.097414926
-0.12006564 -0.08835144 -0.0036404715 0.22252803 -0.031499088 0.10700591 -0.15486576 -0.0033974366
0.21832165 -0.08794645 0.05474488 -0.12837628 0.0054225177 0.049524833 0.044825513 -0.019923197

fc3.bias f4 [10]
00000000: 2f97 81be 48a6 17bf e8e0 913e c43a 953d
00000010: e663 0f3f fbde 12be cda6 c73e c0d0 60be
00000020: c61d 653e ed01 bcbe
-0.25310656 -0.592381 0.28491902 0.07286599 0.5601181 -0.14342873 0.38994446 -0.21954632
0.22374639 -0.3672022
